…
 group\n","# model.add(Dense(512, activation='relu', name='fc6'))\n","# model.add(Dropout(.5))\n","# model.add(Dense(512, activation='relu', name='fc7'))\n","# model.add(Dropout(.5))\n","model.add(Dense(2, activation='softmax', name='fc8'))\n","\n","model.summary()"],"execution_count":0,"outputs":[{"output_type":"stream","text":["Model: \"sequential_10\"\n","_________________________________________________________________\n","Layer (type)                 Output Shape              Param #   \n","=================================================================\n","conv1 (Conv3D)               (None, 300, 70, 70, 64)   5248      \n","_________________________________________________________________\n","pool1 (MaxPooling3D)         (None, 300, 35, 35, 64)   0         \n","_________________________________________________________________\n","conv2 (Conv3D)               (None, 300, 35, 35, 128)  221312    \n","_________________________________________________________________\n","pool2 (MaxPooling3D)         (None, 150, 17, 17, 128)  0         \n","_________________________________________________________________\n","conv3a (Conv3D)              (None, 150, 17, 17, 256)  884992    \n","_________________________________________________________________\n","conv3b (Conv3D)              (None, 150, 17, 17, 256)  1769728   \n","_________________________________________________________________\n","pool3 (MaxPooling3D)         (None, 75, 8, 8, 256)     0         \n","_________________________________________________________________\n","conv4a (Conv3D)              (None, 75, 8, 8, 512)     3539456   \n","_________________________________________________________________\n","conv4b (Conv3D)              (None, 75, 8, 8, 512)     7078400   \n","_________________________________________________________________\n","pool4 (MaxPooling3D)         (None, 37, 4, 4, 512)     0         \n","_________________________________________________________________\n","conv5a (Conv3D)              (None, 37, 4, 4, 512)     7078400   \n","_________________________________________________________________\n","conv5b (Conv3D)              (None, 37, 4, 4, 512)     7078400   \n","_________________________________________________________________\n","zero_padding3d_10 (ZeroPaddi (None, 37, 6, 6, 512)     0         \n","_________________________________________________________________\n","pool5 (MaxPooling3D)         (None, 18, 3, 3, 512)     0         \n","_________________________________________________________________\n","flatten_10 (Flatten)         (None, 82944)             0         \n","_________________________________________________________________\n","fc8 (Dense)                  (None, 2)                 165890    \n","=================================================================\n","Total params: 27,821,826\n","Trainable params: 27,821,826\n","Non-trainable params: 0\n","_________________________________________________________________\n"],"name":"stdout"}]},{"cell_type":"code","metadata":{"id":"4bWb0gSy72i_","colab_type":"code","outputId":"bdd480bf-f518-4a84-cadc-a3c3ec614a6c","executionInfo":{"st
…
